node/deep_learning_node/semantic_segmentation/road_segmentation_adas_0001/saved_model/model_float32.onnx (onnx, 829642 bytes, 274 tensors)

const_fold_opt__1390 f4 [24, 1, 3, 3]
0	0xbe824008	-0.25439477
1	0xbe193eb2	-0.14965323
2	0x3e5e8821	0.21731617
3	0xbf9510a1	-1.16457
4	0xbe8d625f	-0.27614114
5	0x3fa2dad2	1.2723029
6	0xbc97fb4b	-0.018552443
7	0x3dead096	0.11465566
8	0x3e8250ea	0.25452358
9	0xbef27e70	-0.4736209
10	0xbdf0d6cc	-0.11759719
11	0xbedc028f	-0.42970702
12	0xbed233f4	-0.41055262
13	0x3f93e418	1.1553984
14	0xbee4c835	-0.44683996
15	0x3cae8914	0.021305598
16	0x3d7deb35	0.06199189
17	0x3d3e1bb9	0.046413157
18	0x3e1ca6d9	0.15298022
19	0xbd217db2	-0.039426513
20	0x3e1674de	0.14693019
21	0x3e3c8775	0.18411048
22	0xbf27ba7e	-0.6551894
23	0x3e2a0aa5	0.16605623
24	0x3eef22c3	0.4670621
25	0x3ec4b5a5	0.38419834
26	0x3ef079c7	0.4696791
27	0x80000000	-0.0
28	0x80000000	-0.0
29	0x00000000	0.0
30	0x00000000	0.0
31	0x80000000	-0.0
32	0x80000000	-0.0
33	0x00000000	0.0
34	0x80000000	-0.0
35	0x80000000	-0.0
36	0x3ff33a2c	1.9002128
37	0xbf19e423	-0.60113734
38	0x3ff5c8a7	1.9201859
39	0xbf0dbc38	-0.55365324
40	0xbf2a3046	-0.6647991
41	0xbf1bb7cc	-0.60827327
42	0x3f6cab38	0.9244876
43	0x3f0d05b2	0.55086815
44	0x3f630b90	0.8868952
45	0x3f355e03	0.70846575
46	0x3f0a5826	0.54040754
47	0x3f380df2	0.7189628
48	0x3f720dbf	0.94552225
49	0xc011ba84	-2.277009
50	0x3f709fe9	0.93994004
51	0xbe1c5f44	-0.15270716
52	0xbef01514	-0.4689108
53	0xbe093ab7	-0.13401304
54	0x80000000	-0.0
55	0x80000000	-0.0
56	0x00000000	0.0
57	0x80000000	-0.0
58	0x00000000	0.0
59	0x00000000	0.0
60	0x80000000	-0.0
61	0x80000000	-0.0
62	0x00000000	0.0
63	0x3fc73fcb	1.5566343
64	0x3f0da87a	0.553352
65	0x3fcbaeac	1.5912681
66	0xbf55f1a6	-0.8357185
67	0xbf4c9b89	-0.7992483
68	0xbf4e85a4	-0.8067267
69	0x3ea773d5	0.3270556
70	0x3ea3ea3b	0.3201464
71	0x3ebe0319	0.37111738
72	0x00000000	0.0
73	0x00000000	0.0
74	0x00000000	0.0
75	0x80000000	-0.0
76	0x80000000	-0.0
77	0x80000000	-0.0
78	0x80000000	-0.0
79	0x00000000	0.0
80	0x00000000	0.0
81	0x3fa662c8	1.2998896
82	0xbdc36f53	-0.09542718
83	0x3f948c45	1.1605307
84	0x3e42b31f	0.19013642
85	0xc027e996	-2.623632
86	0x3e5ae0cd	0.21374817
87	0x3e6e38b8	0.23263824
88	0x3c606c18	0.013697647
89	0x3e4c8ed7	0.19976364
90	0x80000000	-0.0
91	0x80000000	-0.0
92	0x00000000	0.0
93	0x80000000	-0.0
94	0x80000000	-0.0
95	0x80000000	-0.0
96	0x80000000	-0.0
97	0x00000000	0.0
98	0x80000000	-0.0
99	0xbf150e7c	-0.58225226
100	0xbf02f511	-0.5115519
101	0xbf0e0bcd	-0.55486757
102	0xbf58762c	-0.84555316
103	0x3eaabd80	0.33347702
104	0xbf40c51a	-0.75300753
105	0xbf0daf36	-0.55345476
106	0xbebcf607	-0.36906454
107	0xbf6697c7	-0.90075344
108	0xbf320039	-0.6953159
109	0xbf1dba82	-0.61612713
110	0xbf17b90d	-0.5926674
111	0xbea8f65e	-0.33000463
112	0x3f9b1420	1.2115517
113	0xbe920879	-0.2852209
114	0xbf6792dc	-0.90458465
115	0xbe34556a	-0.17610708
116	0xbf551c1d	-0.8324602
117	0xbe8a1ae1	-0.26973632
118	0x3ecba4ef	0.39774272
119	0xbe8e646e	-0.27810997
120	0xbf9e165c	-1.2350574
121	0x4002b59a	2.042334
122	0xbfa07d55	-1.2538248
123	0xbe690c13	-0.22758512
124	0x3ee9892d	0.4561247
125	0xbe6f7513	-0.23384504
126	0xbe7143e1	-0.2356105
127	0xbf0c7baa	-0.54876196
128	0xbe47d959	-0.19516505
129	0xbf6046a9	-0.8760782
130	0x3f92d2fa	1.1470635
131	0xbf804485	-1.002091
132	0xbedd0377	-0.43166706
133	0xbefba1eb	-0.4914697
134	0xbedf24d9	-0.435828
135	0x3e9429d4	0.28938162
136	0xbe0ecc4b	-0.13945119
137	0xbeaec3c9	-0.34133747
138	0x3faa2b4d	1.3294464
139	0xbe9a820f	-0.30177352
140	0xbf90d5dd	-1.1315266
141	0x3e8f3a24	0.27974045
142	0x3e115697	0.14193188
143	0x3c24d294	0.010059971
144	0x3f1d7a72	0.6151496
145	0x3e9c503c	0.30529964
146	0x3f25f54c	0.6482742
147	0x3ed8c387	0.42336676
148	0xc04fe1fe	-3.2481685
149	0x3ecb60fd	0.39722434
150	0x3f386c8a	0.7204062
151	0x3e3d7d41	0.18504812
152	0x3f251ef0	0.6450033
153	0x3e827d6d	0.25486317
154	0xbea3df9e	-0.32006544
155	0x3e54972e	0.20760795
156	0x3fe04d26	1.7523544
157	0xbf9d5613	-1.2291893
158	0x3fda24b7	1.7042454
159	0xbdfb1973	-0.122607134
160	0xbe978b57	-0.29598495
161	0xbd5fce5c	-0.05464016
162	0x3d53677d	0.051612366
163	0xbedf651a	-0.43631822
164	0x3cfde392	0.030992303
165	0x3fdee4f1	1.7413617
166	0xc0247bca	-2.5700555
167	0x3fdd8ebe	1.7309186
168	0x3e019c7b	0.12657349
169	0xbeec17c7	-0.4611189
170	0x3e1be14d	0.15222664
171	0x3da59b67	0.08086281
172	0xbc5360b7	-0.012901477
173	0x3dedb8e6	0.11607532
174	0xbf9a3a53	-1.2049049
175	0x3fdd232e	1.7276361
176	0xbf98dfac	-1.1943259
177	0xbeaa143c	-0.33218563
178	0x3db34c09	0.08754737
179	0xbe887a96	-0.26656026
180	0x3f00927c	0.5022352
181	0xbe5fd682	-0.21859172
182	0x3edaa693	0.4270521
183	0x3ec84bfd	0.39120474
184	0xc040763b	-3.0072162
185	0x3eba624a	0.36403114
186	0x3f524e28	0.82150507
187	0x3ef5e406	0.4802553
188	0x3f4a3319	0.7898422
189	0x00000000	0.0
190	0x80000000	-0.0
191	0x80000000	-0.0
192	0x00000000	0.0
193	0x00000000	0.0
194	0x00000000	0.0
195	0x00000000	0.0
196	0x00000000	0.0
197	0x00000000	0.0
198	0xbe940e2a	-0.28917056
199	0xbda94afc	-0.08266255
200	0xbe9ed393	-0.31020793
201	0xbf967187	-1.1753396
202	0x3fb989e3	1.4495205
203	0xbf988202	-1.1914675
204	0xbebcb5aa	-0.3685735
205	0x3db7ada5	0.08968667
206	0xbed2f10d	-0.41199532
207	0x3dd80d79	0.10549445
208	0xbe87a35a	-0.26491815
209	0x3dae03da	0.084968284
210	0x3fe433a0	1.7828255
211	0xc01fe70e	-2.4984775
212	0x3fdf619c	1.7451663
213	0x3d3dfbb5	0.046382625
214	0xbe7f322a	-0.2492148
215	0x3d9ba5aa	0.07599957

const_fold_opt__1388 f4 [16, 1, 3, 3]
0	0x3efac5aa	0.4897893
1	0x3ebbe667	0.3669922
2	0x3f2ff4fb	0.68733186
3	0xbfab3c67	-1.3377808
4	0xbe8c593b	-0.27411827
5	0xbfcb6430	-1.588995
6	0xbf08ad5a	-0.53389513
7	0xc002b2f0	-2.0421715
8	0xbf4c0457	-0.7969412
9	0xbc2e52f5	-0.010639896
10	0xbfabb42d	-1.341436
11	0xbf3edcca	-0.7455565
12	0x3fdcec38	1.7259588
13	0x408b4f56	4.3534346
14	0x403b21d9	2.923941
15	0xbec0487f	-0.3755531
16	0x3fd9d208	1.7017221
17	0xbe321e27	-0.17394315
18	0x3e22a371	0.1588266
19	0xbf140bd6	-0.5783056
20	0x3e356f38	0.17718208
21	0xbf835b7a	-1.0262291
22	0xbf64bc42	-0.8934976
23	0xbf9fdcd9	-1.2489272
24	0x3d69cf5a	0.05708251
25	0xbf373af0	-0.71574306
26	0xbd957f3e	-0.0729966
27	0x3ee1e9cc	0.44123685
28	0xbf81b70b	-1.0133985
29	0x3e8663c5	0.26247993
30	0x3ecb26fb	0.39678177
31	0x40916f58	4.544842
32	0x3fbb8870	1.4651012
33	0x3eda56c1	0.42644313
34	0x3e54c6fb	0.2077903
35	0x3eec2d83	0.46128473
36	0xbfc8d799	-1.5690795
37	0x40c6a65b	6.207807
38	0x3f48b95f	0.78407854
39	0xbfcb1638	-1.5866156
40	0xc179c89c	-15.611477
41	0xc0910538	-4.531887
42	0x400de279	2.2169478
43	0xc0cb77ff	-6.358398
44	0x3fade472	1.3585341
45	0xbd0b5776	-0.034018956
46	0xbe94e5aa	-0.2908147
47	0xbd85b078	-0.06527799
48	0x3f36510b	0.7121741
49	0x3fc0842e	1.5040338
50	0x3f80a035	1.0048891
51	0x3d8ec831	0.06971777
52	0x3e4d3073	0.20038013
53	0x3d82bafd	0.063833214
54	0x3ee1fb32	0.4413696
55	0x40d0f42f	6.5298076
56	0x3fa4c22e	1.2871759
57	0xbe8999e3	-0.2687522
58	0x40a726a6	5.223468
59	0x3f817490	1.0113697
60	0xbdd01da3	-0.10161903
61	0x3f66c8c2	0.9015008
62	0x3debf1eb	0.115207516
63	0xbd72133f	-0.059100386
64	0x40e50c10	7.1577225
65	0x3f2cb2aa	0.6746012
66	0x3fa22f0d	1.2670609
67	0x402b8272	2.6798368
68	0x3fb67424	1.4254193
69	0xc01df33d	-2.467971
70	0x4099ffcb	4.8124747
71	0xc03feed8	-2.9989529
72	0x3dbd45f7	0.0924186
73	0xbdcc7a90	-0.099843144
74	0x3d61a857	0.055092182
75	0xbf49ef57	-0.7888083
76	0xbfab89e5	-1.3401457
77	0xbf974cf8	-1.1820364
78	0xbed2740e	-0.41104168
79	0xbd02940b	-0.031879466
80	0xbf04116e	-0.51589096
81	0x3e8a0742	0.26958662
82	0x3f0be257	0.5464224
83	0x3e7027fc	0.23452753
84	0x3f9c0cd5	1.2191416
85	0x3f6cb046	0.9245647
86	0x3fc75379	1.5572349
87	0xbe3d17df	-0.18466137
88	0x3faa58f3	1.3308395
89	0x3db7cdf0	0.08974826
90	0x3f6125cc	0.879483
91	0xc020af5f	-2.5107038
92	0x3f0df5a6	0.55452955
93	0x40247bd5	2.570058
94	0x40912c9c	4.5366955
95	0x4057d84a	3.3725762
96	0x3f958eda	1.168422
97	0x3e9a3754	0.30120337
98	0x3f96e980	1.1790009
99	0xbf791550	-0.97298145
100	0x40370e23	2.8602378
101	0xbfa98563	-1.3243831
102	0x40b9bbab	5.8041587
103	0x41040e0d	8.25343
104	0x40e037c0	7.0068054
105	0xbf56fb9d	-0.8397768
106	0x40023bf3	2.034909
107	0xbfafb481	-1.372696
108	0x3e8afde5	0.2714683
109	0xbf9dcb32	-1.2327635
110	0x3e2ad23a	0.16681758
111	0x3f7b79f4	0.9823296
112	0x40283e51	2.6288035
113	0x3fec9340	1.8482437
114	0x3f52dfbc	0.8237264
115	0x3d13eab2	0.036112495
116	0x3f6859d6	0.9076208
117	0x3e40b04c	0.18817252
118	0xbf0290af	-0.5100202
119	0x3d54cdb3	0.051953983
120	0x3f9c8c80	1.2230377
121	0x4018c331	2.3869135
122	0x3fe8af3e	1.817848
123	0xbe2645bf	-0.16237544
124	0x3ed162d4	0.40895712
125	0xbe10e460	-0.14149618
126	0x3f0afa50	0.54288197
127	0xbf092a76	-0.53580415
128	0x3fd64980	1.674118
129	0xc0490afa	-3.141295
130	0xc11a54fe	-9.64575
131	0xc0b06e8c	-5.5134945
132	0x3f96b348	1.1773462
133	0xbff0d2f7	-1.8814381
134	0x3fbae625	1.4601485
135	0xbc985f33	-0.018600082
136	0xbf46a69a	-0.77597964
137	0x3ec7307f	0.38904187
138	0x3f8f5d84	1.1200414
139	0xc188dbc1	-17.107302
140	0xc00e8231	-2.2266963
141	0x3f3c63ff	0.7359008
142	0x3f1de59c	0.6167848
143	0x3f83bda7	1.0292252

const_fold_opt__1285 f4 [16, 1, 3, 3]
0	0xbe0847f1	-0.13308693
1	0xbf3021f1	-0.6880179
2	0xbe9e9766	-0.30974883
3	0x3eae2774	0.34014475
4	0x3f617f31	0.88084704
5	0x3e9250c3	0.2857724
6	0x3e8ed9c3	0.27900514
7	0x3efb5802	0.49090582
8	0x3ebc558b	0.36784014
9	0x3cd2c75a	0.025729824
10	0xbe05a834	-0.13052446
11	0x3e8f6baf	0.28011844
12	0x3fe3993e	1.7781141
13	0x3f223213	0.6335766
14	0x3ffd8d5e	1.9808767
15	0x3e710bf4	0.23539716
16	0xbd62251b	-0.055211168
17	0x3ebec846	0.37262172
18	0xbf44f1fc	-0.7693174
19	0x3ec402b2	0.38283306
20	0x3f13cdee	0.577361
21	0xbfbef7b4	-1.4919343
22	0x3e37e6ec	0.17959183
23	0x3fac3b1c	1.3455539
24	0xbf34ed19	-0.7067428
25	0xbe91cf79	-0.28478602
26	0x3f37769b	0.7166535
27	0x3f8d3ffb	1.103515
28	0xbecbab7e	-0.39779276
29	0xbf78cbad	-0.97185785
30	0x3fde741f	1.7379187
31	0xbecd0078	-0.4003942
32	0xbfd7ca06	-1.6858528
33	0x3f95cc82	1.1703036
34	0x3e2e4fc1	0.17022611
35	0xbf8432aa	-1.0327961
36	0xbda1bdaf	-0.078975074
37	0x3e932818	0.28741527
38	0xbde067ca	-0.10957296
39	0x3eddf7b5	0.43353048
40	0x3f958e1f	1.1683997
41	0x3ef0a93a	0.4700411
42	0x3ec0179c	0.37518013
43	0x3f1ae56a	0.6050631
44	0x3eb1cc13	0.3472601
45	0xbde88976	-0.113543436
46	0xbdacc348	-0.084356844
47	0xbe1ddca5	-0.154162
48	0xbec60f33	-0.3868347
49	0x3ed338fe	0.4125442
50	0xbe9aa29e	-0.30202192
51	0xbf68c8b4	-0.9093125
52	0xbf8165c8	-1.0109186
53	0xbf72bc7d	-0.9481886
54	0x3f16cf12	0.58909714
55	0x3fae4a73	1.361647
56	0x3f52942a	0.8225733
57	0x3f2a6f22	0.66575825
58	0x3fa3daa7	1.2801102
59	0x3f9678d8	1.1755629
60	0x3f18c5d0	0.5967684
61	0x3f290f9d	0.6603945
62	0x3f2fc96c	0.6866672
63	0x3f8e3898	1.1111021
64	0x3f34b50d	0.7058876
65	0x3f7a741d	0.97833425
66	0x3ebf9753	0.3742014
67	0xbe4f8125	-0.20264108
68	0x3e389464	0.18025357
69	0xbf4cf762	-0.80064976
70	0xbf76c6a9	-0.9639688
71	0xbf7c8cd3	-0.9865238
72	0x3f07b332	0.53007805
73	0xbdf92192	-0.12164606
74	0x3eaf3707	0.3422167
75	0x3f155d4e	0.58345497
76	0x3ffbf8eb	1.9685339
77	0x3ee5ea24	0.44905198
78	0xbfa5c95a	-1.2952073
79	0xbfac6b84	-1.3470311
80	0xbfadc3a9	-1.3575336
81	0xbdbe3a77	-0.09288495
82	0x3e8eb378	0.278713
83	0xbe744bb1	-0.23856999
84	0xbdfbd200	-0.12295914
85	0xbfecd51d	-1.8502537
86	0xbe8b842b	-0.27249274
87	0x3f920a3e	1.1409376
88	0x3f874d95	1.0570551
89	0x3fa332e5	1.2749907
90	0xbebd43ef	-0.36965892
91	0xbe1b450f	-0.15163063
92	0xbe16bfc4	-0.1472159
93	0x3f31ce23	0.69455165
94	0xbff40e47	-1.9066857
95	0x3f37f4a7	0.71857685
96	0x3f9e427b	1.2364038
97	0x3f1681f5	0.5879205
98	0x3faa6c0a	1.3314221
99	0xbf687305	-0.90800506
100	0xbfa2b9b1	-1.2712919
101	0xbf6c1c32	-0.9223052
102	0x3f993f16	1.1972377
103	0x3f92af07	1.1459664
104	0x3f95f0e1	1.1714135
105	0xbd1426a8	-0.036169678
106	0xbe2054bd	-0.15657325
107	0xbdb80d59	-0.08986921
108	0x3ef60fce	0.48058933
109	0x3f1c32eb	0.61015195
110	0x3ef2c43a	0.47415334
111	0x3efa2546	0.48856562
112	0x3f4df1b2	0.8044692
113	0x3f2693de	0.6506938
114	0x3ed407c5	0.41412178
115	0x3f0adf87	0.54247326
116	0x3f037cb5	0.5136216
117	0x3f6e8d48	0.9318433
118	0x3fb1049b	1.382953
119	0x3f73ff0e	0.9531106
120	0xbf43ac1f	-0.7643451
121	0xbf9b0fc6	-1.2114189
122	0xbf6028cd	-0.8756226
123	0xbd492408	-0.049106628
124	0xbeaf3076	-0.3421666
125	0xbd049897	-0.032372084
126	0x3ea78ff3	0.32727012
127	0x3e452f3c	0.192563
128	0x3edd7371	0.43252137
129	0x3f44875d	0.7676905
130	0x3fbb38d9	1.4626724
131	0x3f3c7daa	0.7362925
132	0x3e17a8a3	0.14810424
133	0x3ce52f5d	0.027976686
134	0x3d2f70b6	0.0428321
135	0x3f1f8394	0.6231015
136	0xbfcd8f98	-1.6059446
137	0x3f22ac9b	0.63544625
138	0x3f993334	1.1968751
139	0xbfbe5e99	-1.4872619
140	0x3f95fb8d	1.1717392
141	0xbfe38818	-1.7775908
142	0x403c8310	2.9454994
143	0xbff082c9	-1.8789912

const_fold_opt__1284 f4 [16, 1, 3, 3]
0	0xbd54a470	-0.051914632
1	0x3e64098c	0.22269267
2	0xbdb252a3	-0.08707168
3	0x3f17ea5a	0.5934197
4	0x3f5b338e	0.8562554
5	0x3f189f8f	0.5961847
6	0x3eb72f14	0.35778105
7	0x3ea8791a	0.32904893
8	0x3e981c30	0.29709005
9	0xbe9ab9a8	-0.3021977
10	0x3f2bc74c	0.6710098
11	0x3f1c6daa	0.61104834
12	0xbf7d4454	-0.98932385
13	0xbfaafd55	-1.3358561
14	0x40012bbe	2.0182948
15	0xbeaa0ca7	-0.33212778
16	0x3eeaf2e7	0.45888445
17	0x3f5edfee	0.8706044
18	0xbf40711d	-0.751726
19	0xbf6eb1ef	-0.93240255
20	0xbf1f6603	-0.6226503
21	0xbf63ecdc	-0.89033294
22	0x3f002890	0.50061893
23	0xbf543545	-0.8289378
24	0xbf0838f4	-0.53211904
25	0xbf4ae8ab	-0.79261273
26	0xbf2b0427	-0.6680321
27	0xbeaaa144	-0.3332616
28	0xbf216e06	-0.6305851
29	0xbedfdf45	-0.4372503
30	0xbef1077d	-0.47076026
31	0xbe7cfa31	-0.24704815
32	0xbee6bdf2	-0.45066792
33	0xbeea1814	-0.45721495
34	0xbe8c7d29	-0.2743924
35	0xbf031b62	-0.5121366
36	0x3eea979a	0.45818788
37	0x3e51bb37	0.20481573
38	0x3ee47613	0.44621333
39	0xbf7eb78f	-0.9949884
40	0xbf8a0e76	-1.0785663
41	0xbfa75023	-1.3071331
42	0x3f308652	0.68954957
43	0x3f00366a	0.5008303
44	0x3f4348bc	0.7628286
45	0x3daa29f9	0.08308787
46	0x3e282a03	0.16422276
47	0x3f20aa82	0.62760174
48	0x3eefd83d	0.46844664
49	0xbc9a3896	-0.01882581
50	0x3e61e518	0.22060049
51	0x3e4ca9a5	0.19986589
52	0x3f463e8a	0.7743918
53	0x3e0c328f	0.13691162
54	0xbf0550cf	-0.5207643
55	0x3ae021ee	0.0017099956
56	0x3f25e7df	0.6480693
57	0xbfc21cfe	-1.5165098
58	0xbe0f9c59	-0.14024486
59	0x3fd16858	1.6359968
60	0xbf497ec9	-0.78709084
61	0x3d443fff	0.047912594
62	0x3f4a98fd	0.7913969
63	0xbf3b240c	-0.7310188
64	0xbec633f9	-0.38711527
65	0x3fab10f5	1.336455
66	0xc06916ac	-3.6420088
67	0xbed12535	-0.408487
68	0x40927f53	4.5780425
69	0xbf96d5b8	-1.1783972
70	0x3d4d0590	0.050054133
71	0x3fb30fb8	1.3989172
72	0x3d38dd96	0.045133196
73	0xbddfd5a4	-0.109294206
74	0xbc8180f1	-0.015808554
75	0x3e5520a0	0.20813227
76	0xbf5ce063	-0.86279887
77	0x3e27f084	0.16400343
78	0x3f6fda7f	0.93692774
79	0x3f971ea4	1.1806226
80	0x3f68d862	0.90955174
81	0x3e9561c3	0.2917615
82	0x3f65ecce	0.8981446
83	0x3ee6b1e4	0.45057595
84	0x3eebc4da	0.46048623
85	0x3eb3e9e8	0.35139394
86	0x3f277e81	0.65427405
87	0x3e1a2498	0.15053022
88	0x3df15b62	0.11785008
89	0x3e570302	0.20997241
90	0x3b543c74	0.0032384666
91	0x3e054b37	0.13016973
92	0xbe08870a	-0.13332763
93	0x3e7315b3	0.23738746
94	0xbf8b70a7	-1.0893754
95	0x3dc33140	0.09530878
96	0x3f8d6bed	1.1048561
97	0x3fa31b2e	1.274267
98	0x3f9af612	1.2106345
99	0xbeb188dd	-0.3467473
100	0xbe9c7208	-0.3055575
101	0xbee76f71	-0.4520221
102	0xbdff879c	-0.12477037
103	0xbf535de6	-0.8256515
104	0x3d11ca35	0.03559323
105	0x3f021188	0.50808
106	0x3f3fa26a	0.748572
107	0x3ef652d4	0.48110068
108	0xbf7f9e63	-0.99851054
109	0xbe035b1e	-0.12827727
110	0xbf642b71	-0.89128786
111	0x3df8c81b	0.12147542
112	0x4009bcfb	2.1521595
113	0xbdeaaaf1	-0.11458386
114	0xbf39e4ac	-0.7261455
115	0xbf07893c	-0.5294378
116	0xbf0eb2ea	-0.5574175
117	0xbead3927	-0.33832666
118	0xbf071013	-0.527589
119	0xbf24a11f	-0.6430835
120	0xbee0e6b7	-0.4392602
121	0x3dac7eb0	0.08422601
122	0xbea4777d	-0.32122412
123	0xbf122d4f	-0.57100385
124	0xbf1f9898	-0.62342215
125	0xbf045785	-0.51696044
126	0x3f1c9047	0.6115765
127	0x3f905ed0	1.1278934
128	0x3f2588dc	0.64661956
129	0x3f2e1b54	0.6801045
130	0x3da01c32	0.07817878
131	0x3f33a621	0.7017537
132	0x3e3aaabc	0.18229192
133	0xbebff825	-0.37494007
134	0x3e60a932	0.21939543
135	0xbfcabad0	-1.5838261
136	0xbf8b0afd	-1.0862728
137	0xbfa30729	-1.273656
138	0x3e6d619f	0.2318177
139	0x3fdc1adf	1.71957
140	0x3ea25648	0.31706452
141	0xbed80b85	-0.4219629
142	0x3d226ffc	0.039657578
143	0xbf0566d2	-0.52110016

const_fold_opt__1266 f4 [32, 1, 3, 3]
0	0xbf404efd	-0.75120527
1	0xbecc726d	-0.3993105
2	0xbf2bc434	-0.6709626
3	0xbe9d6b22	-0.30745798
4	0x3dcdb095	0.10043446
5	0xbec3fd35	-0.3827912
6	0xbf24f30f	-0.6443338
7	0xbe2573ee	-0.16157505
8	0xbf3eb8de	-0.74500835
9	0xbfadc6e8	-1.3576326
10	0xbf42d8a8	-0.7611184
11	0x3f53de49	0.82761055
12	0xbfc6e353	-1.5538124
13	0xbea11b8a	-0.31466323
14	0x3fe26a5a	1.7688706
15	0x3fb3e7fd	1.4055172
16	0x3ed3dd0f	0.41379592
17	0xbf0f64d8	-0.5601325
18	0x3f3f4857	0.74719757
19	0x3fbc53df	1.4713095
20	0x3f9452c3	1.1587757
21	0x3fb9a2ef	1.4502848
22	0x3fc31d9e	1.5243413
23	0x3fb33ac3	1.4002308
24	0x3f346dfd	0.7048033
25	0x3f8a3672	1.0797865
26	0x3f5d2b10	0.86393833
27	0x00000000	0.0
28	0x80000000	-0.0
29	0x00000000	0.0
30	0x80000000	-0.0
31	0x80000000	-0.0
32	0x80000000	-0.0
33	0x80000000	-0.0
34	0x80000000	-0.0
35	0x00000000	0.0
36	0xbf05684b	-0.52112263
37	0xbea7f0bc	-0.32800853
38	0x3f095a50	0.5365343
39	0xbfd26f22	-1.6440165
40	0xbcd7cb92	-0.026342187
41	0x3fe6ba43	1.8025593
42	0xbe91b6dd	-0.28459826
43	0x3dd2fb71	0.10301865
44	0x3ed08b99	0.40731505
45	0x3fa2a156	1.2705486
46	0x3fb0471d	1.3771702
47	0x3f945258	1.1587629
48	0xbefa8df3	-0.48936424
49	0xbe914724	-0.28374588
50	0xbf0ff1dc	-0.56228423
51	0xbf9c8d47	-1.2230614
52	0xbf1dd7c3	-0.6165735
53	0xbf853e4d	-1.0409638
54	0xbd55a6d4	-0.052161053
55	0x3ebff972	0.37495
56	0x3e92259a	0.28544313
57	0x3f59a12b	0.8501155
58	0x3e9bbcf2	0.3041759
59	0x3f6d9589	0.928063
60	0x3f49449f	0.7862033
61	0x3f631e3e	0.8871802
62	0x3f357ea0	0.7089634
63	0x3fbfbc79	1.4979392
64	0x3f9c37c6	1.2204521
65	0x3f9de7de	1.2336385
66	0x3bb51667	0.005526352
67	0xbf00d4d5	-0.50324756
68	0x3d6cd20b	0.0578175
69	0xbf68f297	-0.9099516
70	0xbeb3981c	-0.35076988
71	0xbf6f6ea4	-0.935282
72	0xbf58f6ef	-0.8475179
73	0x3f2c6fe2	0.6735822
74	0xbf107851	-0.5643359
75	0xc0234795	-2.551244
76	0x40a11462	5.033738
77	0xc0073b51	-2.1129954
78	0x401b18f8	2.423399
79	0xc0894135	-4.28921
80	0x400d1a4b	2.2047298
81	0xbfcd9ac3	-1.6062855
82	0xbf24b191	-0.64333445
83	0xbdf13811	-0.11778272
84	0xc01f2488	-2.4866047
85	0x4017cc06	2.3718276
86	0x3fd8ee48	1.6947718
87	0x3eeb0cec	0.45908296
88	0x3f876773	1.0578445
89	0xbe373281	-0.1789036
90	0x00000000	0.0
91	0x00000000	0.0
92	0x80000000	-0.0
93	0x00000000	0.0
94	0x80000000	-0.0
95	0x80000000	-0.0
96	0x80000000	-0.0
97	0x00000000	0.0
98	0x00000000	0.0
99	0xbca74d12	-0.020422492
100	0xbeb7584e	-0.3580956
101	0x3ed2968b	0.4113048
102	0xbfb8f6aa	-1.4450276
103	0xbf3ba5cd	-0.73299867
104	0x3fb8d961	1.4441339
105	0x3cdaf357	0.026727362
106	0x3f87f517	1.062167
107	0x3f8e13ae	1.1099756
108	0xbeb4643d	-0.35232726
109	0xbf407d64	-0.7519133
110	0x3f165540	0.5872383
111	0xc0028b46	-2.0397506
112	0xbf082144	-0.5317576
113	0x3ff6c499	1.9278747
114	0xbfcd825f	-1.6055411
115	0x3f570884	0.8399737
116	0x3fd4f89b	1.6638368
117	0x3f2586f6	0.6465906
118	0xbde9ea4c	-0.11421642
119	0x3f41e105	0.7573398
120	0x3f0f3bfb	0.559509
121	0x3daa2372	0.08307542
122	0x3f12c0fc	0.5732572
123	0x3f1a536f	0.6028356
124	0x3e3202ed	0.17383929
125	0x3f07105a	0.52759326
126	0x3f6a4ab1	0.9152022
127	0xbca43db5	-0.020048955
128	0xc002e00b	-2.0449245
129	0xbed87ce9	-0.422828
130	0xbf41e695	-0.75742465
131	0x3fe9aa07	1.8255013
132	0xbea558d8	-0.32294345
133	0xbf535345	-0.82548934
134	0x3fdb627f	1.7139434
135	0x3ee6c158	0.45069385
136	0x3f222a32	0.63345635
137	0x3f05efd6	0.52319086
138	0x3f7cbc7a	0.9872509
139	0x3f3dd803	0.7415773
140	0x3f6f6b1d	0.93522817
141	0x3f59f8f9	0.8514553
142	0x3e3ea099	0.1861595
143	0x3f35c4e3	0.7100355
144	0x3f7631b7	0.9616961
145	0xbd2fdcad	-0.042935062
146	0xbf9764d8	-1.182765
147	0x3f94141f	1.156864
148	0xbe0d6c76	-0.13810906
149	0xbfa4bc67	-1.2869996
150	0x3fdbfb2a	1.7186024
151	0xbdbebd03	-0.09313395
152	0xbfa2fe75	-1.2733904
153	0x3e4bce67	0.19902955
154	0xbfabc476	-1.341933
155	0x3ebce82c	0.36895883
156	0x3f865360	1.0494194
157	0x3ea0d60f	0.31413314
158	0x3f8d70d9	1.1050063
159	0x3f83296e	1.0247018
160	0x3f50f8c0	0.8162956
161	0x3f86c8ec	1.0530066
162	0x3f8d4c78	1.1038961
163	0x3fe9e07f	1.8271636
164	0x3fc6a964	1.5520444
165	0xbf42b6f9	-0.76060444
166	0xc0015c29	-2.02125
167	0xbf4718e4	-0.77772355
168	0xbf1ee82b	-0.6207301
169	0x3e905436	0.28189248
170	0xbd18cb97	-0.037303533
171	0x00000000	0.0
172	0x00000000	0.0
173	0x00000000	0.0
174	0x00000000	0.0
175	0x00000000	0.0
176	0x00000000	0.0
177	0x00000000	0.0
178	0x80000000	-0.0
179	0x80000000	-0.0
180	0x3e863808	0.26214623
181	0x3f213fd3	0.62988013
182	0x3efa69e2	0.48908907
183	0x3ee5e1f6	0.44898957
184	0x40088af8	2.133482
185	0x3f266b22	0.6500722
186	0x3fc49a80	1.535965
187	0x3f0c458d	0.54793626
188	0x3f8c1b6f	1.0945872
189	0x3ee5d75b	0.44890866
190	0xbeba8e2e	-0.364366
191	0x3d451a87	0.048121
192	0x3fac7929	1.3474475
193	0xbf7b7099	-0.98218685
194	0xbf9a4937	-1.2053593
195	0x3fb230c5	1.3921133
196	0x3fe8d9cd	1.8191468
197	0xbf7e2523	-0.99275416
198	0xbed50ded	-0.41612187
199	0xbf41dd9c	-0.75728774
200	0xbe9e8000	-0.3095703
201	0x3d24dea7	0.0402514
202	0xbf7a24c6	-0.9771236
203	0xbdf947c8	-0.12171894
204	0x3fd94e59	1.6977035
205	0x3fc635ba	1.5485146
206	0x3fe60445	1.7970053
207	0x3fb44ea3	1.4086498
208	0x3fb28c67	1.3949097
209	0x3fc21dbf	1.5165328
210	0xbe8839fd	-0.26606742
211	0xbff0b6cd	-1.8805786
212	0x3e877db3	0.26463088
213	0xbf36c14f	-0.71388716
214	0xbf7ad358	-0.97978735
215	0xbf828443	-1.0196613
216	0x401af98f	2.4214818
217	0x4002f816	2.046392
218	0xbf97e64e	-1.1867158
219	0xc006ee61	-2.1082995
220	0x3e56d84d	0.2098095
221	0x3fbdb0ce	1.4819582
222	0xbf9956ee	-1.1979654
223	0xbf99f27d	-1.2027127
224	0x3fdf5e25	1.7450606
225	0xbecafd21	-0.39646247
226	0xbf101d46	-0.5629467
227	0xbee63420	-0.44961643
228	0xbf328406	-0.697327
229	0x3e78f403	0.24311833
230	0xbf1611eb	-0.5862109
231	0xbd287a7f	-0.041132446
232	0xbf37e999	-0.71840817
233	0xbe4c4d50	-0.19951367
234	0xbe393a36	-0.18088612
235	0xbf0835d1	-0.5320712
236	0xbe89f521	-0.2694483
237	0x3eed8059	0.46386984
238	0xc039e8c8	-2.9048328
239	0x3f2b5c60	0.6693783
240	0x3fae2964	1.3606381
241	0x3fb4000e	1.4062517
242	0x3fae1b6e	1.3602121
243	0xbebe8ba9	-0.37215927
244	0x3f17afe1	0.59252745
245	0x3f8ebac5	1.1150748
246	0xbff5aaf8	-1.91928
247	0x3ee0d1a5	0.43909946
248	0x3ff0f1b3	1.8823761
249	0xbfaf47ec	-1.3693824
250	0xbf4f2880	-0.80921173
251	0x3f6b9690	0.92026615
252	0xbfa33a32	-1.2752135
253	0xbf3de40b	-0.7417609
254	0xbfaffd74	-1.3749223
255	0x3e8db15c	0.27674377

const_fold_opt__1195 f4 [32, 1, 3, 3]
0	0x3ed2d9d5	0.41181818
1	0x3e43c0c8	0.19116509
2	0x3ecf5da2	0.40501124
3	0xbef8f8c2	-0.48627287
4	0xbf61b7ae	-0.881709
5	0xbf24ae3f	-0.6432838
6	0x3f8063d4	1.0030465
7	0x3f9056ea	1.1276524
8	0x3f7225f4	0.9458916
9	0xbfce4137	-1.6113652
10	0xbf9123ff	-1.133911
11	0xbfbbfc94	-1.4686456
12	0x3f97fd92	1.1874259
13	0x3ef3ed19	0.4764183
14	0x3f9642ba	1.1739113
15	0x3f4b9a1d	0.79532033
16	0xbcd167c2	-0.02556217
17	0x3f520606	0.8204044
18	0xbd2b8003	-0.04187013
19	0x3d1abd62	0.037778266
20	0xbd49224a	-0.049104966
21	0x4011f55c	2.2806005
22	0xc0869ec1	-4.206879
23	0x40108ab7	2.2584665
24	0xbe14e6a2	-0.14541104
25	0x3e53ab87	0.20670901
26	0xbe293d49	-0.16527285
27	0x3f94f47f	1.1637114
28	0x3f3adef7	0.7299647
29	0x3f9642d9	1.173915
30	0xbf082844	-0.5318644
31	0xbf69f4c2	-0.91389096
32	0xbf2a2224	-0.66458344
33	0xbdef7df2	-0.11693944
34	0xbe10ac17	-0.14128147
35	0xbe157ca8	-0.14598334
36	0x3f94654c	1.1593413
37	0x3f857a68	1.042798
38	0x3f98b73e	1.1930921
39	0xbf3deb1c	-0.74186873
40	0x3e07962d	0.13240881
41	0xbf4cf497	-0.80060714
42	0xbf83fc75	-1.0311419
43	0x3ee40899	0.4453781
44	0xbf99c128	-1.2012072
45	0x80000000	-0.0
46	0x80000000	-0.0
47	0x80000000	-0.0
48	0x00000000	0.0
49	0x00000000	0.0
50	0x80000000	-0.0
51	0x00000000	0.0
52	0x00000000	0.0
53	0x80000000	-0.0
54	0x80000000	-0.0
55	0x00000000	0.0
56	0x00000000	0.0
57	0x00000000	0.0
58	0x80000000	-0.0
59	0x80000000	-0.0
60	0x80000000	-0.0
61	0x80000000	-0.0
62	0x00000000	0.0
63	0x3eab0164	0.33399498
64	0x3f624637	0.8838839
65	0x3f16c33a	0.5889164
66	0xbf7a1585	-0.97689086
67	0xbfb9aca2	-1.4505808
68	0xbf6adb2b	-0.91740674
69	0x3f5fb4e8	0.87385416
70	0x3fc9d015	1.5766627
71	0x3f56623c	0.83743644
72	0xbe28c01f	-0.16479538
73	0xbe978e63	-0.2960082
74	0xbd60b8a5	-0.05486359
75	0xbe86b50c	-0.26310003
76	0xbf3826d6	-0.7193426
77	0xbe5df9fe	-0.21677396
78	0x3f98adb5	1.1928011
79	0x3f32d1f2	0.698516
80	0x3f9a6158	1.2060957
81	0x80000000	-0.0
82	0x00000000	0.0
83	0x00000000	0.0
84	0x80000000	-0.0
85	0x80000000	-0.0
86	0x80000000	-0.0
87	0x80000000	-0.0
88	0x00000000	0.0
89	0x80000000	-0.0
90	0x3c8b13c8	0.016977206
91	0xbcd394de	-0.025827821
92	0xbc432e14	-0.011912841
93	0xbd718167	-0.0589613
94	0xbf121b78	-0.57073164
95	0xbe09ed29	-0.13469376
96	0x3f59d39b	0.8508851
97	0x3f9ff869	1.2497684
98	0x3f35b09b	0.70972604
99	0xbe9e5016	-0.30920476
100	0xbf060aed	-0.5236042
101	0xbea09085	-0.3136026
102	0x3fb71f4e	1.4306428
103	0xbe79e6f8	-0.24404514
104	0x3fb7a0fc	1.4346004
105	0xbe6dc6e7	-0.23220406
106	0xbea32677	-0.31865284
107	0xbe8216c3	-0.2540799
108	0x3e0db87d	0.13839908
109	0x3eed5e55	0.46361032
110	0x3d9f0ee6	0.077665135
111	0x3f87ec92	1.061907
112	0xbf4fbc67	-0.81146854
113	0x3f943672	1.1579115
114	0x3e39bb16	0.18137774
115	0x3f693928	0.9110284
116	0x3df8b8d2	0.12144627
117	0x3e9bf1a1	0.30457786
118	0xbe4dd44f	-0.2010052
119	0x3e966e1f	0.2938089
120	0x3f9546ea	1.1662266
121	0xbecab584	-0.3959161
122	0x3f9e86ff	1.2384948
123	0x3d2ba07d	0.0419011
124	0x3dbca117	0.09210413
125	0x3d2c257f	0.042027947
126	0x3f614e60	0.88010216
127	0x3f265448	0.64972353
128	0x3f532815	0.82483035
129	0xbdc30d88	-0.09524065
130	0xbe494da8	-0.1965853
131	0xbd1dc36c	-0.038516447
132	0xbea6d77c	-0.32586277
133	0xbe3831c7	-0.17987739
134	0xbea6fba2	-0.32613856
135	0xbe076479	-0.13221921
136	0x3ea1e9d4	0.3162371
137	0xbe733531	-0.2375076
138	0xbf8224f7	-1.0167531
139	0x4048f18b	3.1397426
140	0xbf95b48a	-1.1695721
141	0xbe8304ad	-0.25589505
142	0xbe241a80	-0.16025734
143	0xbe86a61b	-0.26298603
144	0x3c8edcc7	0.01743926
145	0x3dbccabe	0.092183575
146	0x3c323a0a	0.010878095
147	0xbdf2b13e	-0.118502125
148	0x3ff4e843	1.9133381
149	0xbd9131b3	-0.070895575
150	0xbfd7dd9b	-1.6864504
151	0xbf64007c	-0.8906324
152	0xbfdb2e16	-1.7123439
153	0x80000000	-0.0
154	0x80000000	-0.0
155	0x00000000	0.0
156	0x80000000	-0.0
157	0x80000000	-0.0
158	0x00000000	0.0
159	0x00000000	0.0
160	0x80000000	-0.0
161	0x80000000	-0.0
162	0x00000000	0.0
163	0x00000000	0.0
164	0x00000000	0.0
165	0x00000000	0.0
166	0x80000000	-0.0
167	0x80000000	-0.0
168	0x00000000	0.0
169	0x00000000	0.0
170	0x80000000	-0.0
171	0x3e0deacb	0.13859098
172	0xbf254a5e	-0.645666
173	0x3e223fb0	0.15844607
174	0x4096482e	4.696311
175	0xc10b9dc3	-8.726016
176	0x409c0ce7	4.876575
177	0x3cae5165	0.021279046
178	0xbed4786f	-0.41498134
179	0x3e70c78c	0.23513621
180	0x3f365c79	0.7123485
181	0x3f8732b1	1.0562345
182	0x3f2b67cc	0.66955256
183	0xbf110622	-0.5664998
184	0xbd1c4a1f	-0.038156625
185	0xbf0b53a9	-0.5442453
186	0xbf0500a3	-0.51954097
187	0xbc1a2fbc	-0.009410795
188	0xbf2a9404	-0.66632104
189	0xbf83b406	-1.0289314
190	0xbf34574b	-0.704457
191	0xbf743df4	-0.9540703
192	0x402a4fd5	2.6611226
193	0xbf3941a7	-0.723658
194	0x402bbae7	2.6832826
195	0xbf771a80	-0.9652481
196	0xbf2f7add	-0.6854685
197	0xbf5a8d08	-0.85371447
198	0x3f4283cd	0.7598236
199	0x3f6b0e4c	0.9181869
200	0x3f5764ea	0.8413836
201	0xbe8ff503	-0.28116617
202	0xbf21bb2a	-0.63176215
203	0xbe9d3abf	-0.30708882
204	0x3cc8a337	0.02449189
205	0xbdc1a0d2	-0.09454502
206	0x3d25ad31	0.04044837
207	0xbcfa0a9d	-0.030522639
208	0x3f5eadf0	0.8698416
209	0xbd190547	-0.03735855
210	0xbf199eb7	-0.60007805
211	0xbf131081	-0.5744706
212	0xbf0f2fa4	-0.5593207
213	0x3e9b1349	0.3028815
214	0x3f95ea9b	1.1712221
215	0x3e82df1f	0.25560853
216	0x80000000	-0.0
217	0x80000000	-0.0
218	0x00000000	0.0
219	0x00000000	0.0
220	0x80000000	-0.0
221	0x80000000	-0.0
222	0x80000000	-0.0
223	0x80000000	-0.0
224	0x80000000	-0.0
225	0x3dbf6563	0.0934551
226	0xbec39ce1	-0.38205627
227	0x3de320d2	0.11090244
228	0x3fee3602	1.8610232
229	0xc02e8f67	-2.7275026
230	0x3fe8186b	1.8132452
231	0x3d187521	0.037221078
232	0xbec6ca78	-0.38826346
233	0x3dd160a2	0.10223509
234	0xbec4682d	-0.3836073
235	0x3e02d505	0.12776573
236	0xbedca8b7	-0.4309747
237	0xbf2988ed	-0.6622456
238	0x3dcae421	0.099067934
239	0xbf38aaaa	-0.7213541
240	0x3f57903e	0.8420447
241	0x3f5cd6bf	0.86265177
242	0x3f538bdf	0.826353
243	0x3f833038	1.024909
244	0x3f8b8675	1.0900408
245	0x3f68aa1a	0.90884554
246	0x3e13148e	0.1436331
247	0xbef77f6d	-0.48339406
248	0x3cd774d4	0.026300825
249	0xbe80aab8	-0.25130248
250	0xbeb94562	-0.36185747
251	0xbe960699	-0.2930191
252	0x3f25a974	0.6471169
253	0xbde3d143	-0.11123898
254	0xbf18d349	-0.59697396
255	0x3fe5898d	1.7932602

const_fold_opt__1194 f4 [24, 1, 3, 3]
0	0x3f689562	0.9085294
1	0x3f83984b	1.0280851
2	0x3f642bba	0.8912922
3	0xbea0d8b4	-0.3141533
4	0xbf496f2f	-0.7868528
5	0xbe7ca743	-0.2467318
6	0x3d85eaf8	0.06538957
7	0x3e11c5dc	0.14235634
8	0xbcccb57f	-0.024988888
9	0x3fa5235d	1.2901417
10	0x3f6c9ee5	0.92429954
11	0x3f9f3958	1.2439375
12	0xbea366db	-0.3191441
13	0x3d0662f6	0.03280922
14	0xbddbfd74	-0.10741702
15	0x3e9fba84	0.31196988
16	0xbdaaf94c	-0.08348331
17	0x3eac1e5a	0.33616906
18	0x3f653104	0.89527917
19	0x3fa9975d	1.3249317
20	0x3f587924	0.84559846
21	0xbe213c86	-0.15745744
22	0xbf915549	-1.1354152
23	0xbe80e741	-0.25176433
24	0xbe3b67d4	-0.18301326
25	0x3f19ffd1	0.6015597
26	0xbe4dbb88	-0.20091069
27	0x3fa1591a	1.2605317
28	0x3ee8575a	0.45379144
29	0x3fa05712	1.2526572
30	0x3e830b00	0.2559433
31	0xbf4b3b4f	-0.7938737
32	0x3e9553cd	0.29165497
33	0xbdbdced7	-0.09267967
34	0xbe36ec33	-0.1786354
35	0xbe0998ac	-0.13437146
36	0x3d511a8f	0.05105072
37	0x3dc022ce	0.093816385
38	0x3d437a12	0.047723837
39	0x3fb27531	1.3942014
40	0xc02392fb	-2.555846
41	0x3fb5214c	1.4150786
42	0x3e3a2f27	0.1818205
43	0xbd6ef8de	-0.058342807
44	0x3df7cd74	0.12099734
45	0xbed9a1d1	-0.4250627
46	0xbe7be556	-0.24599203
47	0xbef33ba6	-0.47506446
48	0xbf82b7de	-1.0212362
49	0x3d9d98a9	0.07695133
50	0xbf725323	-0.94658107
51	0xbf0bacd1	-0.5456057
52	0xbf2e88d4	-0.68177533
53	0xbedd118e	-0.43177456
54	0x3e7280c2	0.2368193
55	0x3e3130d2	0.1730378
56	0x3e81e39f	0.25368974
57	0x3f22d8d0	0.6361208
58	0xbeeef17b	-0.4666861
59	0x3f1a6399	0.60308224
60	0x3eadba40	0.3393116
61	0x3e4ea35f	0.20179509
62	0x3e98b4c6	0.2982542
63	0x3fa5c71b	1.2951387
64	0x3f8f1647	1.1178674
65	0x3f9b87a3	1.2150768
66	0x3f8b57d5	1.0886179
67	0x3e3ebcbf	0.18626688
68	0x3f9fe9f1	1.2493268
69	0x3d143930	0.03618735
70	0xbee2094b	-0.44147715
71	0xbe24301f	-0.16033982
72	0x3fab0278	1.3360128
73	0x3f5c951f	0.8616504
74	0x3f97908d	1.1840988
75	0xbfbdb70d	-1.4821488
76	0xbe18de2b	-0.149285
77	0xbfc26201	-1.5186158
78	0xbf0657b5	-0.5247758
79	0x3e44a34c	0.19202918
80	0xbf0a22ce	-0.5395936
81	0x3d58e470	0.05295223
82	0x3f0026c8	0.50059175
83	0x3db587bf	0.08863782
84	0xbee54606	-0.44779986
85	0xbf72ed4f	-0.94893354
86	0xbef0fc80	-0.47067642
87	0x3f253ba4	0.6454413
88	0x3f8d1731	1.1022702
89	0x3f2fb6b1	0.6863814
90	0xbf491aa1	-0.7855626
91	0xbf3988f5	-0.72474605
92	0xbf5faf19	-0.8737655
93	0x3f1b3c0a	0.6063849
94	0x3ee1db1e	0.44112486
95	0x3f1994bd	0.5999258
96	0xbde985dd	-0.114024855
97	0xbda55856	-0.08073489
98	0xbe2b4a59	-0.1672758
99	0x3e97055a	0.2949627
100	0xbddc081b	-0.107437335
101	0x3ea84a82	0.32869345
102	0xbfc569aa	-1.5422871
103	0x3ff9dead	1.952108
104	0xbfd480b9	-1.6601783
105	0x3ecb6bd3	0.397307
106	0x3e7376b6	0.23775753
107	0x3ee13e67	0.43992922
108	0xbf8afcd5	-1.0858408
109	0xbf3f284a	-0.7467085
110	0xbf875f87	-1.0576028
111	0x3f204b4a	0.6261488
112	0x3ebc7a54	0.3681208
113	0x3f1c8966	0.61147153
114	0x3e0a24c4	0.13490587
115	0x3dccbc12	0.09996809
116	0x3ddf7ec1	0.10912848
117	0xbedaa092	-0.4270063
118	0xbe9531c9	-0.29139546
119	0xbee4a1bd	-0.44654647
120	0xbe2d96ca	-0.16952053
121	0x3dd4ffb3	0.10400333
122	0xbe0d1dff	-0.13780974
123	0x3f97c2fe	1.1856382
124	0x3f5923ff	0.8482055
125	0x3f924268	1.1426516
126	0x3f20e67b	0.62851685
127	0x3ee3d586	0.44498843
128	0x3f2e2ec6	0.6804012
129	0x3e4dcbc3	0.2009726
130	0xbf23dead	-0.6401165
131	0x3e15c744	0.14626795
132	0x3e1bd600	0.15218353
133	0xbc0c8a50	-0.008577898
134	0x3e0843b8	0.13307083
135	0x3cd4503e	0.025917169
136	0x3d2177ca	0.03942088
137	0x3d069cf5	0.03286453
138	0xbfac764b	-1.34736
139	0x3ff9f07d	1.9526516
140	0xbfacf229	-1.3511401
141	0xbc95663f	-0.018237231
142	0x3d1ef8b5	0.038811404
143	0xbc8c884a	-0.017154831
144	0xbe627d72	-0.22118166
145	0x3dee2db9	0.11629815
146	0xbe680199	-0.2265686
147	0xbd923593	-0.07139125
148	0xbe010c4a	-0.12602344
149	0xbdd71418	-0.105018795
150	0x3f939398	1.1529417
151	0x3f8bc782	1.092026
152	0x3f955b0a	1.1668408
153	0x3cf02c10	0.029317886
154	0x3dd75e54	0.105160385
155	0x3cfd500c	0.030921958
156	0xbfade54c	-1.3585601
157	0x3f830c58	1.0238142
158	0xbfae6160	-1.3623466
159	0x3dae0835	0.08497659
160	0xbcb5b665	-0.022181699
161	0x3dcb0029	0.0991214
162	0x3f482338	0.7817874
163	0xc0196651	-2.39687
164	0x3f3ea10d	0.74464494
165	0xbf1443ea	-0.5791613
166	0xbdcccf54	-0.10000482
167	0xbf010005	-0.50390655
168	0x4046e7ac	3.1078901
169	0x40846c01	4.138184
170	0x403c6706	2.943788
171	0x3c59c358	0.0132912025
172	0xbc03ef38	-0.00805264
173	0x3db725da	0.089427665
174	0xbfae9a90	-1.3640919
175	0x3fa9b3ee	1.3258035
176	0xbfb7b25c	-1.4351306
177	0xbc318700	-0.010835409
178	0x3e170cf3	0.14751033
179	0xba3e4ad3	-0.00072590745
180	0xbde57d64	-0.11205557
181	0xbe12984e	-0.14315912
182	0xbdfdc232	-0.123905554
183	0xbe43149e	-0.19050834
184	0x3ed068b0	0.4070487
185	0xbe4787a0	-0.1948533
186	0xbf1d1a53	-0.6136829
187	0xbf349264	-0.70535874
188	0xbf1235b5	-0.571132
189	0x80000000	-0.0
190	0x80000000	-0.0
191	0x80000000	-0.0
192	0x00000000	0.0
193	0x80000000	-0.0
194	0x80000000	-0.0
195	0x80000000	-0.0
196	0x00000000	0.0
197	0x80000000	-0.0
198	0xbe302f80	-0.1720562
199	0xbdde86b2	-0.10865535
200	0xbe3fc936	-0.187291
201	0x3fb0ca8d	1.3811814
202	0xbf894dc3	-1.0726856
203	0x3fbc9e19	1.4735748
204	0x3f537944	0.8260691
205	0x3ede249b	0.43387303
206	0x3f6783d9	0.9043556
207	0xbedb8b52	-0.4287973
208	0xbed7d913	-0.42157802
209	0xbeec34ef	-0.46134135
210	0x3fa8e74b	1.3195585
211	0xbf8e5bf5	-1.1121813
212	0x3fac2743	1.3449482
213	0xbe047826	-0.12936458
214	0xbe258ed6	-0.16167769
215	0xbe013507	-0.12617885

const_fold_opt__1193 f4 [32, 1, 3, 3]
0	0xbe07f08c	-0.13275355
1	0xbf06c6f8	-0.5264735
2	0x3df4414a	0.119265154
3	0x4057cd70	3.371914
4	0xbf73d81d	-0.9525164
5	0xbfdb6f37	-1.7143315
6	0x3e5d2a4a	0.21598163
7	0xbece0295	-0.40236345
8	0xbe023162	-0.1271415
9	0x3fb165eb	1.3859228
10	0x3f4ab12a	0.7917658
11	0x3fa1cae6	1.2640045
12	0xc023b304	-2.5578012
13	0xbf5fc026	-0.8740257
14	0xc0279f10	-2.6190834
15	0x3f8a1af8	1.078948
16	0x3f6fd27d	0.93680555
17	0x3f8c30f8	1.0952444
18	0xbdc9441e	-0.098274454
19	0x3edf7531	0.43644097
20	0xbdbff43b	-0.09372755
21	0xbf3974eb	-0.7244403
22	0xc0308a1e	-2.75843
23	0xbf4f726a	-0.81033957
24	0xbc205a12	-0.009787099
25	0x40a1d1fc	5.056883
26	0xbcc36bba	-0.023855079
27	0x3d1a0c57	0.037609424
28	0xbee978cd	-0.45599976
29	0xbe311bdb	-0.17295782
30	0xbfb69e97	-1.4267148
31	0xbf9c33c9	-1.2203304
32	0x4055fe90	3.3436623
33	0xbcab03b3	-0.020875787
34	0xbf00e975	-0.5035623
35	0x3e8782f1	0.26467088
36	0x80000000	-0.0
37	0x00000000	0.0
38	0x00000000	0.0
39	0x80000000	-0.0
40	0x80000000	-0.0
41	0x80000000	-0.0
42	0x80000000	-0.0
43	0x00000000	0.0
44	0x80000000	-0.0
45	0x00000000	0.0
46	0x80000000	-0.0
47	0x00000000	0.0
48	0x80000000	-0.0
49	0x80000000	-0.0
50	0x00000000	0.0
51	0x80000000	-0.0
52	0x00000000	0.0
53	0x00000000	0.0
54	0x3c579ebf	0.013160407
55	0xbec7a820	-0.38995457
56	0x3e94696f	0.2898669
57	0xc00b0e12	-2.1727338
58	0xbe4752ef	-0.1946523
59	0x40455798	3.0834713
60	0xbf3c18b7	-0.7347521
61	0xbec3ea93	-0.38264903
62	0x3f3cf430	0.738101
63	0x00000000	0.0
64	0x00000000	0.0
65	0x80000000	-0.0
66	0x80000000	-0.0
67	0x00000000	0.0
68	0x80000000	-0.0
69	0x80000000	-0.0
70	0x00000000	0.0
71	0x80000000	-0.0
72	0x3f73125c	0.9494989
73	0x3f9fd1e8	1.2485933
74	0x3f8095e9	1.0045749
75	0xbf654e35	-0.8957246
76	0xbebb61f2	-0.36598164
77	0xbf65fc79	-0.8983837
78	0xbee4471c	-0.44585502
79	0xbe74fa80	-0.23923683
80	0xbeef4991	-0.46735814
81	0xbe6a4581	-0.22878076
82	0x3e1d6a7e	0.15372655
83	0x3c8fa419	0.017534303
84	0xbf270a84	-0.6525042
85	0xbf8d3992	-1.1033194
86	0xbf1a9393	-0.6038143
87	0x3fa4c3f9	1.2872306
88	0x3f4c4511	0.79792887
89	0x3fa2891b	1.2698091
90	0x00000000	0.0
91	0x80000000	-0.0
92	0x80000000	-0.0
93	0x00000000	0.0
94	0x80000000	-0.0
95	0x00000000	0.0
96	0x80000000	-0.0
97	0x80000000	-0.0
98	0x00000000	0.0
99	0xbf207122	-0.62672627
100	0xbdf86ae4	-0.12129763
101	0xbf4ccac3	-0.7999689
102	0xbf8e18a6	-1.1101272
103	0xbfaa16e2	-1.3288233
104	0xbf92f312	-1.1480429
105	0x3fccdfcb	1.6005796
106	0x3fd2919c	1.6450686
107	0x3fdc9afd	1.7234799
108	0x3f327a41	0.69717795
109	0x3f2d9f40	0.6782112
110	0x3f4ac19d	0.7920168
111	0x3e074427	0.13209592
112	0x3ef5dce6	0.48020095
113	0x3d4436a3	0.047903668
114	0xbf09ef69	-0.53880936
115	0xbfbce695	-1.4757868
116	0xbef7d109	-0.4840167
117	0xbf18e6c7	-0.5972714
118	0xbe6dd367	-0.23225175
119	0xbe9f4b50	-0.31112146
120	0xbe2844d0	-0.164325
121	0xbe14783b	-0.1449899
122	0xbecc2ab3	-0.39876327
123	0x3fca444b	1.5802091
124	0x3f0d0de4	0.5509932
125	0x3fc51e44	1.5399861
126	0xba70d367	-0.0009186775
127	0x3dc948a9	0.09828312
128	0xbdccd1be	-0.10000943
129	0x402430da	2.5654817
130	0xbeddc4c0	-0.4331417
131	0xbfd4467b	-1.6584009
132	0x3e298449	0.16554369
133	0xbdadda12	-0.08488859
134	0xbead9171	-0.33900025
135	0x3f652041	0.8950234
136	0x3f746e08	0.95480394
137	0x3f6d2d76	0.9264749
138	0xbe827472	-0.25479466
139	0x3decf98f	0.11571037
140	0xbe3d440e	-0.18482992
141	0xbf6931d0	-0.9109163
142	0xbf31ad3d	-0.69404966
143	0xbf7dfafc	-0.99211097
144	0xbe569f69	-0.20959248
145	0xbfbb2a95	-1.462237
146	0xbec74625	-0.38920704
147	0x40208f45	2.5087445
148	0xbff1c888	-1.8889322
149	0x401d9af3	2.4625823
150	0x3e00a5d7	0.12563263
151	0xbfdc6a81	-1.7220002
152	0x3e12631f	0.14295624
153	0x3fb61891	1.4226247
154	0x3f54972b	0.83043164
155	0x3fac2d72	1.3451369
156	0xbeaf678c	-0.34258687
157	0xbec60d3a	-0.38681966
158	0xbee1a270	-0.44069242
159	0xbf75fa40	-0.96084976
160	0xbe915739	-0.28386858
161	0xbf669945	-0.9007762
162	0x00000000	0.0
163	0x80000000	-0.0
164	0x00000000	0.0
165	0x80000000	-0.0
166	0x80000000	-0.0
167	0x00000000	0.0
168	0x80000000	-0.0
169	0x80000000	-0.0
170	0x00000000	0.0
171	0x80000000	-0.0
172	0x00000000	0.0
173	0x80000000	-0.0
174	0x00000000	0.0
175	0x80000000	-0.0
176	0x00000000	0.0
177	0x00000000	0.0
178	0x00000000	0.0
179	0x80000000	-0.0
180	0xbed3d8de	-0.41376394
181	0x3e763062	0.24041894
182	0xbed198eb	-0.4093698
183	0xbf921c74	-1.1414933
184	0xbfa71187	-1.3052224
185	0xbf8310c3	-1.023949
186	0x3ff0e156	1.8818767
187	0x3f8f851d	1.1212498
188	0x3fe4b7f4	1.7868638
189	0x3f249ced	0.6430195
190	0x3fa1cd36	1.264075
191	0x3f25b581	0.6473008
192	0xbd0e4d68	-0.03474179
193	0xbf824c18	-1.0179472
194	0xbdb114d1	-0.086465485
195	0xbdbf8ba0	-0.09352803
196	0xbdec807f	-0.11547946
197	0xbdad8119	-0.08471889
198	0x3e15f18c	0.14642924
199	0x3e8e78ce	0.27826542
200	0x3d982ecf	0.07430803
201	0xbd333a7e	-0.043756954
202	0xbf24c781	-0.6436692
203	0x3cfc3765	0.030788133
204	0x3f277e3d	0.65427
205	0x3fb33c23	1.4002727
206	0x3f2850f2	0.6574851
207	0x3eb3cc74	0.35116923
208	0x3e0d5f1a	0.1380581
209	0x3f3b8467	0.73248905
210	0x3f432073	0.7622139
211	0xbed41331	-0.41420892
212	0x3efcbc24	0.4936229
213	0x3f7ba843	0.9830362
214	0x3eee1ba4	0.46505463
215	0x3f86ce99	1.0531799
216	0x80000000	-0.0
217	0x00000000	0.0
218	0x80000000	-0.0
219	0x80000000	-0.0
220	0x00000000	0.0
221	0x00000000	0.0
222	0x00000000	0.0
223	0x00000000	0.0
224	0x80000000	-0.0
225	0x3f5568e1	0.8336316
226	0x3fb996bd	1.4499127
227	0x3f20f57b	0.62874573
228	0xbf22b9dc	-0.6356485
229	0xbf4bf4cb	-0.796704
230	0xbf0916e8	-0.5355058
231	0xbecb93ec	-0.39761293
232	0x3ec37ec2	0.38182646
233	0xbec8e914	-0.39240324
234	0xbeb9bf37	-0.36278698
235	0x3ecb5c8f	0.39719054
236	0xbe9ba7f8	-0.30401587
237	0x3f8cc222	1.0996745
238	0x3efd6d9b	0.49497685
239	0x3f88ef72	1.0698073
240	0xbf884fb1	-1.064932
241	0xbfcb1a87	-1.586747
242	0xbf93af89	-1.1537944
243	0x3f1f7692	0.622903
244	0x3eefa8ed	0.46808568
245	0x3f09c5d0	0.5381746
246	0x3f83ba23	1.029118
247	0xbf53bda6	-0.82711256
248	0x3f77c461	0.96784025
249	0x3dbe97b6	0.0930628
250	0xbeb87b35	-0.360315
251	0x3e2d50d5	0.16925366
252	0x80000000	-0.0
253	0x00000000	0.0
254	0x80000000	-0.0
255	0x80000000	-0.0

const_fold_opt__1192 f4 [24, 1, 3, 3]
0	0x3e1da083	0.15393262
1	0x3dd370b4	0.10324231
2	0x3e4bbad1	0.19895484
3	0x3ee54993	0.44782695
4	0xbfa7907c	-1.3090968
5	0x3edcbf22	0.43114573
6	0x3e4a35d8	0.19747102
7	0x3dd2bb73	0.10289659
8	0x3e78d580	0.24300194
9	0xbd6b3985	-0.0574279
10	0xbc32704e	-0.010891033
11	0x3d85ecea	0.065393284
12	0xbfb32e0f	-1.3998431
13	0xbdf63aa8	-0.120229065
14	0x3fbbf4b6	1.4684055
15	0xbdd2436b	-0.10266765
16	0xbd213d53	-0.039365124
17	0x3e181861	0.1485305
18	0xbf0bd618	-0.54623556
19	0xbea13ac0	-0.31490135
20	0xbef6453d	-0.480997
21	0xbe46a34a	-0.19398227
22	0x3f74c53d	0.9561346
23	0xbe2c5ae8	-0.16831553
24	0xbdad6e9e	-0.08468364
25	0x3df5915b	0.11990615
26	0xbdaf8a12	-0.08571257
27	0x3c93e779	0.01805471
28	0x3d23c84e	0.039985947
29	0xbb6b1a73	-0.003587392
30	0x3cc4e0e0	0.02403301
31	0xbf875ebd	-1.0575787
32	0x3c4cdd12	0.012503879
33	0x3ecdf0eb	0.40222868
34	0x3ee3714a	0.4442237
35	0x3ece9dff	0.40354916
36	0xbad97b78	-0.0016592583
37	0x3e143936	0.14474949
38	0x3a3c060b	0.00071725313
39	0xbf54d9dd	-0.83144933
40	0x3f750fae	0.9572705
41	0xbf554aa8	-0.8331704
42	0xbd5a25df	-0.053258773
43	0x3dae4349	0.085089274
44	0xbd4339d4	-0.04766257
45	0x3da1d796	0.07902448
46	0x3c553914	0.013014097
47	0x3dda85dd	0.10670064
48	0xbf91de45	-1.1395956
49	0x3ffea049	1.9892665
50	0xbf935d6b	-1.1512884
51	0xbcdd51f9	-0.027016627
52	0xbcc57730	-0.024104685
53	0xbd36a995	-0.04459532
54	0x80000000	-0.0
55	0x00000000	0.0
56	0x80000000	-0.0
57	0x00000000	0.0
58	0x00000000	0.0
59	0x00000000	0.0
60	0x00000000	0.0
61	0x00000000	0.0
62	0x00000000	0.0
63	0x3f5be8be	0.8590201
64	0xbd64ed50	-0.05589038
65	0x3f38dc8d	0.72211534
66	0x3ec63205	0.38710037
67	0xc0069cf3	-2.1033294
68	0x3ecdd056	0.4019801
69	0x3e957b5d	0.2919568
70	0x3d06375c	0.03276764
71	0x3ea6e33d	0.32595244
72	0x80000000	-0.0
73	0x00000000	0.0
74	0x80000000	-0.0
75	0x80000000	-0.0
76	0x80000000	-0.0
77	0x00000000	0.0
78	0x00000000	0.0
79	0x80000000	-0.0
80	0x80000000	-0.0
81	0x80000000	-0.0
82	0x80000000	-0.0
83	0x00000000	0.0
84	0x00000000	0.0
85	0x80000000	-0.0
86	0x00000000	0.0
87	0x80000000	-0.0
88	0x80000000	-0.0
89	0x00000000	0.0
90	0x00000000	0.0
91	0x80000000	-0.0
92	0x80000000	-0.0
93	0x00000000	0.0
94	0x00000000	0.0
95	0x00000000	0.0
96	0x80000000	-0.0
97	0x80000000	-0.0
98	0x80000000	-0.0
99	0xbc9432fb	-0.018090716
100	0xbdf41d7d	-0.11919687
101	0x3c1ac4b2	0.00944631
102	0x3fb3903e	1.4028394
103	0xbfddeb5f	-1.7337455
104	0x3faf7013	1.3706077
105	0x3e242b6d	0.1603219
106	0xbe45709c	-0.19281238
107	0x3e4db3f4	0.20088178
108	0x80000000	-0.0
109	0x00000000	0.0
110	0x00000000	0.0
111	0x80000000	-0.0
112	0x80000000	-0.0
113	0x00000000	0.0
114	0x80000000	-0.0
115	0x00000000	0.0
116	0x80000000	-0.0
117	0x00000000	0.0
118	0x00000000	0.0
119	0x80000000	-0.0
120	0x00000000	0.0
121	0x00000000	0.0
122	0x80000000	-0.0
123	0x00000000	0.0
124	0x00000000	0.0
125	0x00000000	0.0
126	0xbf01d77b	-0.5071942
127	0xbe8b2cba	-0.2718256
128	0xbf0cc953	-0.54994696
129	0xbf24cccb	-0.6437499
130	0x40136b7a	2.3034348
131	0xbf107600	-0.56430054
132	0xbf7d9f61	-0.9907132
133	0xbf33009c	-0.69922805
134	0xbf84ca48	-1.0374231
135	0x00000000	0.0
136	0x80000000	-0.0
137	0x00000000	0.0
138	0x00000000	0.0
139	0x00000000	0.0
140	0x00000000	0.0
141	0x00000000	0.0
142	0x00000000	0.0
143	0x80000000	-0.0
144	0xbeeb352d	-0.45939007
145	0x3db821c8	0.08990818
146	0xbef481f8	-0.47755408
147	0xbef68805	-0.4815065
148	0x3fa36d7a	1.2767785
149	0xbef32cda	-0.47495157
150	0xbe6cda74	-0.23130208
151	0x3d894ffd	0.0670471
152	0xbe615845	-0.22006328
153	0x80000000	-0.0
154	0x00000000	0.0
155	0x00000000	0.0
156	0x80000000	-0.0
157	0x80000000	-0.0
158	0x80000000	-0.0
159	0x80000000	-0.0
160	0x00000000	0.0
161	0x00000000	0.0
162	0x3e23f33e	0.16010758
163	0xbe09573b	-0.13412182
164	0x3e3cba11	0.18430354
165	0x3f6dc0e8	0.92872477
166	0xbf94e112	-1.1631186
167	0x3f742ae7	0.95377964
168	0x3dfca1ba	0.123355344
169	0xbd6d968b	-0.058004897
170	0x3dbf91fe	0.09354018
171	0x3c63a627	0.013894594
172	0xbe1d10a5	-0.1533838
173	0x3cdffd4d	0.027342463
174	0x3f6693b1	0.9006911
175	0xbf9b49c0	-1.2131882
176	0x3f6c7076	0.923591
177	0x3d50a491	0.050938193
178	0xbdad6645	-0.08466772
179	0x3d4b640d	0.049655963
180	0x00000000	0.0
181	0x00000000	0.0
182	0x00000000	0.0
183	0x00000000	0.0
184	0x80000000	-0.0
185	0x00000000	0.0
186	0x00000000	0.0
187	0x00000000	0.0
188	0x00000000	0.0
189	0x3f8055bc	1.0026164
190	0x3e9e3761	0.30901626
191	0x3f83bcd8	1.0292006
192	0x3e4ec88f	0.20193695
193	0xbf9ea13a	-1.2392952
194	0x3e31066f	0.1728761
195	0x3d3dfd68	0.046384245
196	0x3c1087f7	0.008821479
197	0x3b6289f3	0.0034567087
198	0x80000000	-0.0
199	0x80000000	-0.0
200	0x00000000	0.0
201	0x80000000	-0.0
202	0x00000000	0.0
203	0x80000000	-0.0
204	0x80000000	-0.0
205	0x80000000	-0.0
206	0x80000000	-0.0
207	0x00000000	0.0
208	0x80000000	-0.0
209	0x80000000	-0.0
210	0x00000000	0.0
211	0x00000000	0.0
212	0x00000000	0.0
213	0x80000000	-0.0
214	0x80000000	-0.0
215	0x80000000	-0.0
